weights/face_binary_cls.onnx (onnx, 74794 bytes, 8 tensors)

classifier.0.weight f4 [2, 2048]
0.029426228 0.055579487 0.05933608 -0.021966496 -0.030651353 0.01354398 0.0058340086 -0.07433262
0.028277151 0.13484904 -0.0130783925 0.099734806 0.087996736 0.015883071 0.04516471 -0.002777814
-0.026842225 0.10529068 -0.040732916 -0.21106593 -0.14509328 0.04845863 0.18772382 0.0729458
0.03612129 0.17047617 0.05730895 -0.09147632 -0.09763868 0.019266134 0.106486954 0.039002534
0.0016635903 -0.13517824 -0.15238717 -0.2501594 -0.22462238 -0.02801832 -0.0629493 0.002552459
-0.014575652 0.05548302 0.026241997 -0.17048241 -0.036948983 0.09699369 0.055503055 0.05196703
0.0041869706 0.05888769 0.05087785 -0.10876384 0.0103190495 0.18474242 0.07510267 0.057710327
-0.086211026 -0.016372083 0.0006687463 0.03831339 0.01954364 -0.0036503586 0.011697714 0.03614728
0.12590407 0.040978175 0.104348645 0.026237639 0.07930665 0.18253958 0.09582291 0.0974126
-0.15926763 0.06708534 0.009854388 0.176161 -0.064055145 0.050763544 0.18712783 0.16145615
0.088982925 0.020111743 -0.12021799 -0.33465123 -0.16936636 0.18693402 0.20698906 0.2058994
-0.19112891 0.12320358 0.2087189 -0.0716591 -0.08126271 0.048464343 0.36503565 0.059853945
0.25552496 0.15323353 0.010326154 -0.0742486 -0.06123836 0.15301977 0.07766233 0.25553316
0.09636816 0.10688864 0.012297098 0.062101934 0.07999385 0.36649936 0.17754449 0.005041016
0.14679244 0.18296254 0.30883986 -0.19715591 -0.18133235 0.02489328 0.13656157 0.2739523
-0.15328766 -0.44140553 -0.08285127 -0.004858983 -0.17804588 0.2087877 -0.14640751 -0.012053886
0.0006016393 0.0333586 0.09692249 0.0055373595 0.012422774 0.071257286 -0.013403791 0.056624856
-0.037547298 0.07094736 0.10324857 0.1525766 -0.01868349 -0.04740986 -0.07453612 -0.010509743
-0.017287036 0.0023582785 0.16038306 -0.064041056 -0.22262284 -0.10349602 0.037718322 -0.03604582
0.01587537 -0.03056936 0.12360282 0.050914947 0.0362307 0.008516017 0.023453685 0.053738184
-0.0020475409 0.0051330603 -0.16428426 -0.18202694 -0.17787004 -0.23638216 -0.09972435 -0.041996546
0.037668828 0.006738927 -0.10380895 0.026996356 0.027930468 -0.085802175 -0.046858627 -0.09469685
0.011432899 0.0024173574 -0.025928626 0.044665497 -0.09491655 -0.0631009 -0.081563 -0.043438055
0.01547829 -0.05205283 -0.008737233 0.039801065 0.048840456 0.060684513 -0.09352826 -0.056336217
-0.027772974 0.04388429 0.10260859 0.14004175 0.12237795 0.15154508 0.055946216 -0.18766893
-0.021401297 0.05198466 0.025345214 -0.19968598 -0.17553176 0.20640276 0.14313807 0.08422916
-0.11930729 -0.0108875055 -0.12856558 -0.05266319 -0.101293914 0.17973477 -0.06082682 -0.05568233
-0.004781948 0.018259594 -0.08418577 -0.15285014 -0.15568365 0.028287284 0.04255137 0.04104744
0.04131568 0.000821025 0.008946791 -0.15284082 -0.11672262 -0.037729338 0.16158514 -0.0068003424
0.014823647 0.08900481 0.14990489 -0.058382344 -0.17457767 -0.082800835 -0.03530383 -0.1012126
0.006604993 0.10019735 0.20004793 0.09949484 0.18094823 0.17876028 0.099312186 -0.018793216
0.004487576 0.18969515 0.07698164 0.086196326 0.19933067 0.17724834 0.08689922 0.13698876
00000000: 460f f13c 51a7 633d 640a 733d 15f3 b3bc
00000010: 8c18 fbbc 92e7 5d3c 362b bf3b b33b 98bd
00000020: 7ca5 e73c de15 0a3e c146 56bc c341 cc3d
00000030: a237 b43d 371d 823c a2fe 383d fc0b 36bb
00000040: 3ae4 dbbc a4a2 d73d 8fd7 26bd ab21 58be
00000050: 5593 14be 8e7c 463d ac3a 403e 9c64 953d
00000060: ebf3 133d 4e91 2e3e cabc 6a3d f057 bbbd
00000070: caf6 c7bd 03d4 9d3c d515 da3d 1fc1 1f3d
00000080: d40c da3a 2a6c 0abe 620b 1cbe e514 80be
00000090: 6903 66be ad86 e5bc 90eb 80bd 2847 273b
000000a0: b7ce 6ebc 2a42 633d 75f9 d63c f192 2ebe
000000b0: d157 17bd a1a4 c63d 2c57 633d 61db 543d
000000c0: db32 893b 3834 713d 4b65 503d 93bf debd
000000d0: 3b11 293c 1e2d 3d3e 6ecf 993d aa61 6c3d
000000e0: 688f b0bd bf1e 86bc ce4e 2f3a 80ee 1c3d
000000f0: fc19 a03c db3a 6fbb c5a7 3f3c 2c0f 143d
00000100: ffec 003e bbd8 273d beb4 d53d 51f0 d63c
00000110: 866b a23d a8eb 3a3e cd3e c43d 4280 c73d
00000120: 0e17 23be 0a64 893d 4d74 213c 8d63 343e
00000130: 582f 83bd 6fed 4f3d 709e 3f3e c354 253e
00000140: ae3c b63d 62c1 a43c d934 f6bd 6857 abbe
00000150: 606e 2dbe a26b 3f3e f1f4 533e 4bd7 523e
00000160: 4cb7 43be 2952 fc3d 68ba 553e 02c2 92bd
00000170: 106d a6bd 8c82 463d f4e5 ba3e 6929 753d
00000180: 2bd4 823e 40e9 1c3e 072f 293c a60f 98bd
00000190: 13d5 7abd 37b1 1c3e 6d0d 9f3d 3ed5 823e
000001a0: ab5c c53d 6ee8 da3d c479 493c 995e 7e3d
000001b0: d1d3 a33d cea5 bb3e 39ce 353e 1b2f a53b
000001c0: c250 163e 885a 3b3e 4220 9e3e 3de3 49be
000001d0: 30af 39be feec cb3c ccd6 0b3e 7a43 8c3e
000001e0: 71f7 1cbe e8ff e1be edad a9bd 1b38 9fbb
000001f0: a951 36be 71cc 553e daeb 15be aa7d 45bc
00000200: 54b7 1d3a 07a3 083d 4c7f c63d bd72 b53b
00000210: e488 4b3c 57ef 913d 939b 5bbc 77ef 673d
00000220: 32cb 19bd d94c 913d fc73 d33d 0a3d 1c3e
00000230: 1e0e 99bc d730 42bd 65a6 98bd 0f31 2cbc
00000240: 8b9d 8dbc 598d 1a3b 753b 243e f527 83bd
00000250: 3ef7 63be b9f5 d3bd 877e 1a3d c8a4 13bd
00000260: 100d 823c 986c fabc 7a23 fd3d 318c 503d
00000270: a466 143d c486 0b3c f121 c03c 921c 5c3d
00000280: 0930 06bb 3b33 a83b 223a 28be 4565 3abe
00000290: 9023 36be 2a0e 72be 483c ccbd 9204 2cbd
000002a0: a14a 1a3d 38d2 dc3b c999 d4bd 7627 dd3c
000002b0: 70ce e43c 0db9 afbd d5ee 3fbd 6cf0 c1bd
000002c0: 0e51 3b3c 876c 1e3b 4568 d4bc 2bf3 363d
000002d0: 9c63 c2bd 0b3b 81bd 810a a7bd 1aec 31bd
000002e0: a798 7d3c 5935 55bd 9c26 0fbc 7106 233d
000002f0: ee0c 483d 5390 783d bf8b bfbd cec0 66bd
00000300: 2684 e3bc 03c0 333d 7424 d23d 1b67 0f3e
00000310: 4aa1 fa3d a22e 1b3e dc27 653d 492c 40be
00000320: c651 afbc deed 543d c4a0 cf3c 7b7a 4cbe
00000330: 99be 33be 3f5b 533e c992 123e 5680 ac3d
00000340: 6157 f4bd 8261 32bc b2a6 03be 5bb5 57bd
00000350: 2f73 cfbd 640c 383e 8b25 79bd 2813 64bd
00000360: e3b1 9cbb 2595 953c 9769 acbd bf84 1cbe
00000370: 896b 1fbe bcba e73c 584a 2e3d 5c21 283d
00000380: a13a 293d 0e3a 573a 9095 123c 4e82 1cbe
00000390: 450c efbd 148a 1abd 9376 253e 68d5 debb
000003a0: e2de 723c 2748 b63d ab80 193e 5322 6fbd
000003b0: 7dc4 32be 7c93 a9bd c09a 10bd 8d48 cfbd
000003c0: b26e d83b 4534 cd3d 5dd9 4c3e f3c3 cb3d
000003d0: 7e4a 393e ef0c 373e 3064 cb3d 3bf4 99bc
000003e0: 840c 933b 723f 423e 8da8 9d3d b387 b03d
000003f0: 571d 4c3e 9780 353e 38f8 b13d c846 0c3e

classifier.0.bias f4 [2]
-0.0040076836 0.00010113005
00000000: e352 83bb c815 d438

38 f4 [16, 3, 3, 3]
0.39464307 0.31125212 -0.113536164 0.30107704 0.40669382 0.42162737 0.21860032 -0.13719831
-0.2722659 -0.3841937 -0.72105736 -0.58308995 -0.48366326 -0.28575644 -0.05651677 -0.53083885
-0.77037054 -0.7629983 0.025733506 0.12633972 -0.17480506 0.21570784 0.21041252 -0.100641824
0.27207935 -0.3632402 -0.25211236 -0.3779639 -0.28126734 -0.099892944 -0.29411986 -0.352513
-0.27488035 0.07936121 -0.11976181 -0.09621229 -0.29249555 -0.35626453 -0.089926735 -0.30967128
-0.45575193 -0.18596205 0.0046898457 0.07736333 0.11418518 0.049611814 -0.1174234 -0.061348002
-0.17694806 -0.23101062 -0.01014731 0.10893406 -0.033674054 0.055747885 -0.7857677 -0.43438435
-0.23328306 -0.7045561 -1.0594592 -0.96986556 -0.4306335 -0.49769416 -0.38025817 0.743165
0.39787427 0.70530725 0.14347716 0.31259444 0.2433205 0.6502008 0.17526624 -0.21967348
0.3032335 0.6659125 0.32520002 0.25262007 0.21478127 -0.25885805 0.5798695 0.10853558
0.5885381 -0.66717565 -2.0332286 -2.0057657 2.6963172 0.49773622 1.189053 0.8569126
-0.5478645 -0.5474117 -0.38225102 -0.10105263 -0.7386174 2.0439014 1.4866843 0.50445044
-0.5007768 -1.8825145 -0.70317525 -0.8941499 -0.75519013 1.0137452 -0.21174146 1.5843949
2.470182 -2.3377092 -2.20756 -0.7657903 0.11595148 -0.029040033 0.7682127 0.38493067
1.1514106 1.0909537 -1.0764828 -1.1670347 0.029069614 -0.877457 0.5579421 1.1665275
-0.18994229 0.7673296 0.74027365 -1.4748354 -1.5412221 -0.6860829 -0.18105343 0.068953045
1.2358037 -0.5324052 -0.14725618 1.4631968 -1.3702732 -0.7870854 0.98745936 0.26478675
0.3556826 0.104706556 0.25831616 0.58448446 0.37813473 0.0707449 0.23480041 0.23432183
-0.0130122695 0.1177902 0.14724356 0.04454773 0.30134895 0.034679458 0.10438265 0.080957696
0.04673539 0.000114658316 0.11621634 -0.061609983 0.13820495 0.06610005 0.024520641 0.103318214
0.17039937 -0.07025218 -0.6798553 -1.3538299 -0.82105464 2.2388427 0.52264774 -0.36318606
-1.4912193 1.1072139 0.33895338 -1.7142519 0.5416925 -1.0977235 1.6462898 0.90318096
0.94332093 -1.8965774 0.7349083 -2.4249914 -1.6165315 1.7934322 0.48784658 -0.15854074
0.78907776 0.014245147 -2.945607 0.5394235 -0.4857813 -0.054304346 -0.3152643 -0.06946454
-0.11268508 -0.17926472 -0.20574911 -0.07990353 -0.49118677 -0.025087593 0.19014266 -0.18238616
-0.059863616 0.2252154 -0.17008233 0.26245677 0.29177034 -0.2754409 0.30317858 -0.026542168
-0.56722933 -0.11456274 -0.067640044 -0.10235165 -0.12649953 -0.36027682 -0.49318066 -0.20856257
-0.10553966 0.14529943 0.31293455 -0.6343524 -0.41135284 -0.22918832 -0.3269688 -0.4666978
-0.14151694 0.047637857 0.3689984 0.54759896 -0.7058803 -0.5644361 0.13388251 -0.34838295
-0.7413975 -0.38709667 0.25354767 -0.007902776 0.33674595 -0.0746156 -0.27811626 -0.110156484
-0.2025166 -0.2381966 -0.021202441 0.8231694 -0.6653018 -1.2321107 0.8115323 -0.122332565
-1.0530983 0.45618296 0.102331914 0.033566006 0.85834605 -0.29432422 -1.2657924 0.9141286
00000000: a80e ca3e 705c 9f3e a685 e8bd c526 9a3e
00000010: 2c3a d03e 8bdf d73e c3d8 5f3e b77d 0cbe
00000020: 7066 8bbe 09b5 c4be 3797 38bf 6245 15bf
00000030: b6a2 f7be ab4e 92be 217e 67bd 0ee5 07bf
00000040: 0137 45bf db53 43bf 13cf d23c 335f 013e
00000050: 1900 33be 84e2 5c3e 6176 573e 4d1d cebd
00000060: fc4d 8b3e 9ffa b9be df14 81be 7c84 c1be
00000070: 4602 90be ac94 ccbd e196 96be 957c b4be
00000080: 1ebd 8cbe 2188 a23d ae45 f5bd f30a c5bd
00000090: fac1 95be 4e68 b6be 822b b8bd 3c8d 9ebe
000000a0: 5158 e9be d66c 3ebe 47ad 993b aa70 9e3d
000000b0: ebd9 e93d c235 4b3d ae7b f0bd 0b48 7bbd
000000c0: df31 35be 0c8e 6cbe e740 26bc d218 df3d
000000d0: ceed 09bd e557 643d 1228 49bf a067 debe
000000e0: c1e1 6ebe ca5d 34bf 5c9c 87bf 1c49 78bf
000000f0: fe7b dcbe c5d1 febe 33b1 c2be 1040 3e3f
00000100: 2db6 cb3e 048f 343f adeb 123e 610c a03e
00000110: 0229 793e 8f73 263f fe78 333e 16f2 60be
00000120: 6c41 9b3e 3e79 2a3f 9e80 a63e 6b57 813e
00000130: 9fef 5b3e 0b89 84be 5472 143f e747 de3d
00000140: 6faa 163f 06cc 2abf 6b20 02c0 775e 00c0
00000150: 7690 2c40 48d7 fe3e e432 983f a05e 5b3f
00000160: d940 0cbf 2c23 0cbf 68b6 c3be aef4 cebd
00000170: 0816 3dbf 48cf 0240 ac4b be3f aa23 013f
00000180: e932 00bf 3cf6 f0bf 4b03 34bf 02e7 64bf
00000190: 2454 41bf 67c2 813f c1d2 58be 74cd ca3f
000001a0: 7617 1e40 079d 15c0 aa48 0dc0 d50a 44bf
000001b0: f877 ed3d 5de5 edbc 96a9 443f a215 c53e
000001c0: 6c61 933f 5fa4 8b3f 30ca 89bf 6561 95bf
000001d0: 6623 ee3c 06a1 60bf 4bd5 0e3f c650 953f
000001e0: 3b80 42be b66f 443f 9382 3d3f 68c7 bcbf
000001f0: c446 c5bf 21a3 2fbf 1266 39be 4137 8d3d
00000200: d12e 9e3f b54b 08bf 53ca 16be 084a bb3f
00000210: 1d65 afbf 6e7e 49bf 23ca 7c3f 2192 873e
00000220: 081c b63e 6470 d63d 0442 843e c6a0 153f
00000230: e09a c13e b4e2 903d 856f 703e 10f2 6f3e
00000240: 6a31 55bc fd3b f13d 04c7 163e ae77 363d
00000250: 694a 9a3e 0c0c 0e3d 92c6 d53d 26cd a53d
00000260: 9c6d 3f3d b774 f038 d502 ee3d c05a 7cbd
00000270: 9985 0d3e 775f 873d 83df c83c 8098 d33d
00000280: 2c7d 2e3e 60e0 8fbd ff0a 2ebf 4c4a adbf
00000290: a330 52bf 3349 0f40 3ecc 053f 86f3 b9be
000002a0: 46e0 bebf 2fb9 8d3f 4c8b ad3e 9b6c dbbf
000002b0: 5cac 0a3f 3482 8cbf a0b9 d23f de36 673f
000002c0: 7b7d 713f 0cc3 f2bf f322 3c3f 0f33 1bc0
000002d0: 81ea cebf 308f e53f 07c7 f93e 8158 22be
000002e0: 0001 4a3f 7a64 693c d384 3cc0 a917 0a3f
000002f0: 54b8 f8be 3c6e 5ebd 536a a1be 6d43 8ebd
00000300: 6fc7 e6bd 2c91 37be e5af 52be 76a4 a3bd
00000310: d57c fbbe 7f84 cdbc c2b4 423e 70c3 3abe
00000320: 8d33 75bd de9e 663e 102a 2ebe bc60 863e
00000330: ec62 953e 9706 8dbe 393a 9b3e f66e d9bc
00000340: f135 11bf df9f eabd dd86 8abd be9d d1bd
00000350: 1889 01be 3476 b8be 2d82 fcbe 6d91 55be
00000360: 2d25 d8bd 60c9 143e f538 a03e eb64 22bf
00000370: d79c d2be 58b0 6abe 7468 a7be 04f3 eebe
00000380: d1e9 10be ea1f 433d 5ced bc3e 722f 0c3f
00000390: 92b4 34bf e27e 10bf 7f18 093e 405f b2be
000003a0: 3acc 3dbf 8931 c6be 00d1 813e a57a 01bc
000003b0: f769 ac3e 10d0 98bd 4165 8ebe b999 e1bd
000003c0: 8360 4fbe cfe9 73be beb0 adbc 3bbb 523f
000003d0: 3851 2abf ceb5 9dbf 95c0 4f3f 7f89 fabd
000003e0: edcb 86bf d090 e93e 6593 d13d 827c 093d
000003f0: 91bc 5b3f aab1 96be 7c05 a2bf 5504 6a3f

39 f4 [16]
0.5312736 2.0255265 0.5032426 1.0871441 -0.16811907 -1.4195297 1.3647283 1.4160137
2.0942433 0.37322155 -0.98419213 -1.6288463 0.11098604 1.7342286 0.8017651 0.11197768
00000000: 8c01 083f 3aa2 0140 82d4 003f 8a27 8b3f
00000010: 6827 2cbe 26b3 b5bf 6baf ae3f f03f b53f
00000020: 1508 0640 e516 bf3e 04f4 7bbf 097e d0bf
00000030: a64c e33d 34fb dd3f 7a40 4d3f 8e54 e53d

41 f4 [32, 16, 3, 3]
0.014125248 0.02011669 0.0045715445 0.04060846 -0.0028727339 -0.0051887906 -0.0021336132 0.017233144
0.019087555 -0.050847527 -0.036057323 -0.0474122 -0.03970468 -0.057623364 -0.023586567 -0.056559544
-0.015139501 -0.035067342 0.035408456 0.016424006 0.028921401 0.034245424 0.037314687 -0.00438508
0.021399492 0.010438159 -0.0007815449 -0.034098484 -0.007026171 0.032585986 0.05825255 0.013727081
0.07811452 0.01124295 0.021197375 -0.0015449037 -0.0013319806 -0.008390102 -0.017952355 -0.0023986371
-0.0050387303 0.06115652 0.00823463 -0.04006314 0.016569383 0.052072126 -0.0019818866 0.026132092
0.02867473 0.007973486 0.062428784 0.015201683 -0.0019699773 0.019259062 0.005896697 0.0035950614
0.02319124 0.0452346 0.002449538 0.04406255 0.04981729 0.052721806 0.038780723 -0.005027108
0.02685495 0.03040057 0.0391252 -0.018487908 0.044216696 0.010911246 -0.013053186 0.022384612
-0.087844744 -0.018411404 -0.019791473 -0.073141314 -0.032482456 -0.04522565 -0.033846974 -0.045551565
-0.0016718251 -0.0049911127 -0.03445318 0.008672465 -0.018223213 -0.02042446 -0.004876857 0.06469478
-0.018232081 0.0144121405 -0.00037349598 0.04014398 0.020879557 0.048954535 0.049837742 0.070625
0.047983874 -0.0110023 0.030104399 0.038402166 0.010721614 0.039257772 0.045628298 0.048027314
0.07042415 0.028564949 0.034244537 0.017332964 0.028848995 0.00462516 0.045134764 0.03252499
0.03574412 0.059356324 0.06291903 0.018422052 0.023654588 -0.051211495 -0.04428374 -0.01636019
-0.06823624 -0.027714513 -0.034291353 -0.025394281 -0.004618259 -0.032069903 0.011104218 -0.02635356
0.009131064 -0.013256146 -0.0060902066 0.034868386 -0.0002852273 0.0040159603 -0.004564797 -0.047324132
-0.023962462 0.026137087 0.051210742 0.024852907 0.06375664 0.044772327 -0.041245874 0.028111624
0.015253411 0.026545225 -0.08274737 -0.074680224 -0.010917103 -0.008953084 -0.12511635 -0.053736676
-0.031518374 0.03455151 0.21167342 0.060543872 -0.046763882 0.16498752 0.15159644 -0.16125081
0.0060472656 0.125927 -0.08319646 -0.021254519 0.06058255 -0.099235214 -0.04911397 0.018714586
-0.09558144 -0.072429664 0.023992715 -0.007939357 -0.12063019 -0.16489992 0.014591068 -0.11732934
-0.18235694 -0.032383732 -0.11013844 -0.1375559 -0.04727904 0.17402138 0.26712856 -0.028024355
0.021619577 0.1812035 0.018803462 0.04771608 0.06890072 0.036188934 -0.17731284 0.051151965
0.1519915 -0.13831817 -0.11978731 0.2106041 0.00462742 -0.09450281 -0.013326147 -0.03574589
-0.06175537 -0.12081138 -0.0859599 -0.09429288 -0.09505276 -0.15294029 -0.07188203 -0.0066667725
-0.021395031 0.009661893 -0.018800395 -0.02461362 -0.012288863 -0.029849278 -0.03699604 -0.009184922
0.0060506705 0.22485133 0.052589826 -0.12472782 0.102051996 0.13418278 -0.21064802 -0.025355697
0.06517182 0.09981221 0.13040014 -0.012923718 0.08306546 0.28628814 0.120045744 -0.052516982
0.092872456 0.124382295 0.10239299 -0.22453439 -0.03500422 0.18508445 -0.05593278 -0.123204954
0.20199533 0.028091053 -0.112577416 -0.035306547 -0.23756664 -0.045920223 0.03301163 -0.17477708
-0.14416474 0.13095346 -0.07892382 -0.15437244 0.008724582 -0.063123666 0.08656124 0.047250714
00000000: 966d 673c c2cb a43c e5cc 953b 0e55 263d
00000010: 7a44 3cbb bb06 aabb 17d4 0bbb 862c 8d3c
00000020: 815d 9c3c 7f45 50bd d8b0 13bd 4c33 42bd
00000030: 60a1 22bd 7a06 6cbd 9e38 c1bc fbaa 67bd
00000040: ab0b 78bc c6a2 0fbd 7508 113d a38b 863c
00000050: 93ec ec3c ee44 0c3d 49d7 183d b8b0 8fbb
00000060: fd4d af3c d004 2b3c 97e0 4cba daaa 0bbd
00000070: cb3b e6bb e278 053d 3a9a 6e3d 8de7 603c
00000080: 81fa 9f3d 5a34 383c 1ea6 ad3c 5e7e caba
00000090: da95 aeba a376 09bc d110 93bc 7432 1dbb
000000a0: ef1b a5bb 427f 7a3d 8bea 063c 3f19 24bd
000000b0: 84bc 873c 9549 553d 8ae2 01bb f812 d63c
000000c0: 44e7 ea3c 39a3 023c 53b5 7f3d 7b10 793c
000000d0: bc1a 01bb 2ec5 9d3c 1439 c13b 1f9b 6b3b
000000e0: 8efb bd3c ea47 393d 6e88 203b ef7a 343d
000000f0: 370d 4c3d d2f2 573d 89d8 1e3d 70ba a4bb
00000100: e9fe db3c 9e0a f93c bf41 203d f473 97bc
00000110: 911c 353d 15c5 323c 08dd 55bc ef5f b73c
00000120: f2e7 b3bd 83d3 96bc ba21 a2bc 1dcb 95bd
00000130: 530c 05bd 883e 39bd 20a3 0abd 4794 3abd
00000140: 2421 dbba 7d8c a3bb c71e 0dbd f416 0e3c
00000150: d948 95bc 3251 a7bc 0bce 9fbb b27e 843d
00000160: 725b 95bc e620 6c3c c8d1 c3b9 046e 243d
00000170: 9b0b ab3c 8d84 483d a922 4c3d d7a3 903d
00000180: bd8a 443d fe42 34bc 809d f63c 974b 1d3d
00000190: b5a9 2f3c c2cc 203d bde4 3a3d 4ab8 443d
000001a0: 893a 903d 0a01 ea3c 0044 0c3d dcfd 8d3c
000001b0: ba54 ec3c a78e 973b 3bdf 383d ed38 053d
000001c0: 6d68 123d 9e1f 733d b1db 803d d8e9 963c
000001d0: 44c7 c13c 25c3 51bd de62 35bd ce05 86bc
000001e0: 71bf 8bbd 8c09 e3bc 1775 0cbd ab07 d0bc
000001f0: c454 97bb bb5b 03bd 77ee 353c 6ce3 d7bc
00000200: 759a 153c 4e30 59bc 5b90 c7bb 27d2 0e3d
00000210: 8f8a 95b9 5198 833b 4b94 95bb f3d6 41bd
00000220: ed4c c4bc 721d d63c 5bc2 513d 5398 cb3c
00000230: d792 823d 3063 373d 6ff1 28bd 594a e63c
00000240: 71e9 793c 5f75 d93c 7477 a9bd f2f1 98bd
00000250: a6dd 32bc f5af 12bc 801e 00be fd1a 5cbd
00000260: 6919 01bd e285 0d3d ebc0 583e dafc 773d
00000270: 7c8b 3fbd 7df2 283e 193c 1b3e ef1e 25be
00000280: 2428 c63b 02f3 003e e862 aabd f51d aebc
00000290: 6825 783d d53b cbbd bb2b 49bd 554f 993c
000002a0: 34c0 c3bd 0156 94bd 5f8c c43c 1414 02bc
000002b0: f60c f7bd 86db 28be 600f 6f3c 5d4a f0bd
000002c0: c7bb 3abe cea4 04bd 4390 e1bd 74db 0cbe
000002d0: aba7 41bd a932 323e 13c5 883e 5593 e5bc
000002e0: 8a1b b13c 698d 393e b809 9a3c f071 433d
000002f0: d21b 8d3d d93a 143d 7f91 35be b984 513d
00000300: a9a3 1b3e 47a3 0dbe 0d53 f5bd 9aa8 573e
00000310: 9da1 973b b08a c1bd e955 5abc 486a 12bd
00000320: 33f3 7cbd f56b f7bd be0b b0bd a01c c1bd
00000330: 05ab c2bd 619c 1cbe e336 93bd f174 dabb
00000340: a244 afbc eb4c 1e3c 4903 9abc 81a2 c9bc
00000350: 3a57 49bc 7986 f4bc 2989 17bd 5b7c 16bc
00000360: b444 c63b 6d3f 663e 6e68 573d 4d71 ffbd
00000370: a300 d13d 3667 093e 1db4 57be c0b6 cfbc
00000380: ce78 853d 586a cc3d 9d87 053e 01be 53bc
00000390: 391e aa3d 5c94 923e 8bda f53d 0c1c 57bd
000003a0: ea33 be3d 25bc fe3d 6ab3 d13d 58ec 65be
000003b0: 9660 0fbd c786 3d3e c519 65bd e152 fcbd
000003c0: ddd7 4e3e 351f e63c fd8e e6bd 999d 10bd
000003d0: ab44 73be d816 3cbd 3437 073d c3f8 32be
000003e0: ec9f 13be aa18 063e d0a2 a1bd cf13 1ebe
000003f0: 8df1 0e3c fb46 81bd 0547 b13d f789 413d

42 f4 [32]
-0.8984575 0.12183002 -1.2174866 0.15396571 0.5613631 0.39191365 1.5804975 0.92713225
-0.28752735 -1.2465117 0.54117906 0.45883402 -0.9297666 0.9465098 -2.0196316 1.9819049
0.03240406 0.7440181 1.6237522 -2.151311 1.003879 -0.7344588 -0.8972895 -0.14268021
-0.28659603 0.6522633 0.69248044 -2.569141 1.0389522 0.6716339 0.31258696 -2.8816516
00000000: 5001 66bf 0482 f93d 9ad6 9bbf 30a9 1d3e
00000010: 7eb5 0f3f e8a8 c83e be4d ca3f 8a58 6d3f
00000020: c936 93be b28d 9fbf b68a 0a3f 4bec ea3e
00000030: 2f05 6ebf 774e 723f a541 01c0 0faf fd3f
00000040: 1fba 043d f877 3e3f 1dd7 cf3f 14af 09c0
00000050: 1b7f 803f 7e05 3cbf c4b4 65bf c31a 12be
00000060: b7bc 92be bafa 263f 6646 313f ce6c 24c0
00000070: 63fc 843f 33f0 2b3f 660b a03e fb6c 38c0

44 f4 [32, 32, 3, 3]
-0.027050192 -0.017725047 -0.006851328 -0.020700077 -0.0037872873 -0.011506191 -0.018590478 -0.009452225
-0.029281627 0.05290905 0.01166422 0.05537632 0.009948438 0.008186054 0.015557705 0.018378869
0.03167071 0.0017401287 -0.0007858689 -0.00575824 -0.0065817237 0.0028112784 -0.020406732 -0.00835715
-0.004253875 -0.003077982 -0.0074679004 0.01752797 0.015340114 -0.0075743534 -0.003682821 0.013794054
0.0060446193 0.013539095 0.0040081707 -0.010908588 -0.00079227285 0.0020387575 -0.009674571 -0.0028220608
0.0047964794 -0.0027470302 -0.019039772 0.0031588695 -0.0060399403 0.014505548 0.017389594 -0.008206185
-0.033258256 -0.005993521 -0.011771646 -0.0066443505 -0.018936053 -0.02678795 -0.0015331382 -0.017511612
-0.0067842025 0.0050638113 -0.036415875 -0.011515878 -0.018644972 -0.010256759 -0.021024473 -0.008490279
-0.0002227534 -0.0073943315 0.009670207 0.0076289866 -0.0019076256 -0.01761692 -0.01152281 0.00253728
-0.008980309 -0.014178534 -0.005024206 0.0057767546 -0.0019527839 0.009842334 0.005836024 -0.0069425325
-0.0042826426 -0.049064547 -0.019946624 -0.03707982 -0.030329097 -0.03683071 -0.0409065 -0.025409969
-0.041079935 -0.017233685 0.0065203677 0.01878582 0.014872525 0.018578755 0.041122045 0.031411726
0.023421982 0.049234785 0.019919235 0.014901445 -0.0029940198 -0.0029258577 0.029110555 0.0041460367
0.008717467 0.023216179 0.034386918 0.016640201 0.021494957 0.014782286 0.0043718214 0.011633891
-0.012688495 -0.0108691845 0.009031582 0.0023954154 0.0060502207 -0.010249458 -0.01737232 -0.0066254116
0.007830046 0.0008348276 -0.0054253424 -0.009955126 0.0004911968 0.00035108914 0.00072816736 0.0012947539
-0.012370137 -0.0061672353 -0.020166202 -0.009071584 0.016158316 0.011221343 0.011473228 -0.01959326
-0.008063956 -0.021450259 -0.004468727 -0.021590367 -0.008278661 -0.012220947 -0.016888393 -0.020233791
0.04606553 0.050170347 0.061570365 0.006826035 0.014648705 2.4974279e-05 0.0130019635 -0.0019350549
0.016821247 0.008983294 0.0016926051 0.0030824768 0.016176505 0.031285543 0.022820724 0.008195401
0.012582815 0.006211109 -0.0030902762 0.0047071087 -0.011782307 -0.0036741577 0.003779913 -0.009457893
0.0074523087 0.010392067 -0.006922658 0.017287266 0.0035975925 -0.0037122646 -0.006269518 -0.020540137
-0.03200098 0.030434247 0.0024788687 -0.002589671 0.0049879528 -0.0063454662 0.00547597 -0.0024036986
-0.012690311 0.014211666 0.011958968 0.03975206 0.018606048 0.016837154 0.0012773447 -0.015139874
-0.002300143 -0.015069379 -0.051349528 0.018516177 0.0038959482 -0.021717256 0.0019559604 0.011387902
-0.00748776 -0.0063730865 -0.01154633 -0.021385862 0.0383071 0.009246511 0.000898424 0.022888822
0.0028416482 0.0005382412 0.028449945 -0.016622305 0.008455251 0.020424 0.013521046 0.0046670483
0.006698618 0.014181458 -0.0062627783 -0.0036390342 0.008234312 -0.0072449525 -0.009479482 -0.0017848269
-0.02007854 0.067764364 0.070538074 0.08126589 0.010582196 0.033476528 0.017475564 -0.017052602
0.01371271 0.04789167 -0.005220298 0.0016032545 -0.011391606 -0.0025578947 0.010439769 -0.0011327921
-0.015747698 0.0145903425 -0.021771085 0.0064699943 -0.0025544437 -0.026442157 0.008153557 -0.01308076
-0.013910105 0.007486882 -0.005742524 -0.008729483 0.012378178 0.025393542 -0.00012605672 0.00478001
00000000: 5d98 ddbc 1e34 91bc 1b81 e0bb 3593 a9bc
00000010: 2334 78bb 7784 3cbc 0f4b 98bc 81dd 1abc
00000020: 06e0 efbc 29b7 583d 491b 3f3c 48d2 623d
00000030: c6fe 223c cd1e 063c bfe5 7e3c 488f 963c
00000040: 25b9 013d 0815 e43a c502 4eba 9eaf bcbb
00000050: 80ab d7bb 6d3d 383b 052c a7bc 6dec 08bc
00000060: 1764 8bbb f8b7 49bb 4ab5 f4bb d196 8f3c
00000070: 1a55 7b3c 4832 f8bb 7c5b 71bb 7500 623c
00000080: f111 c63b 15d3 5d3c f956 833b efb9 32bc
00000090: 88b0 4fba ad9c 053b 1882 1ebc 53f2 38bb
000000a0: c92b 9d3b 8507 34bb 4cf9 9bbc 0905 4f3b
000000b0: b1ea c5bb aea8 6d3c 9f74 8e3c 3c73 06bc
000000c0: cf39 08bd 4c65 c4bb dddd 40bc dab8 d9bb
000000d0: c81f 9bbc 6772 dbbc 95f3 c8ba 8374 8fbc
000000e0: 044e debb 54ee a53b d028 15bd 18ad 3cbc
000000f0: 57bd 98bc f70b 28bc 843b acbc d01a 0bbc
00000100: e992 69b9 264c f2bb ca6f 1e3c 94fc f93b
00000110: 4b09 faba 5c51 90bc 2bca 3cbc 7f48 263b
00000120: 2522 13bc 154d 68bc 18a2 a4bb ee4a bd3b
00000130: 8ef4 ffba be41 213c 1e3c bf3b 2f7e e3bb
00000140: 6955 8cbb e8f7 48bd 1a67 a3bc 02e1 17bd
00000150: ba74 f8bc ccdb 16bd 938d 27bd 9128 d0bc
00000160: 6f43 28bd a82d 8dbc cfa8 d53b b8e4 993c
00000170: e4ab 733c 7932 983c 976f 283d 95a9 003d
00000180: 75df bf3c 6aaa 493d aa2d a33c 3125 743c
00000190: 5137 44bb bfbf 3fbb 4279 ee3c 7adb 873b
000001a0: b5d3 0e3c db2f be3c 4cd9 0c3d 0851 883c
000001b0: 3116 b03c 6731 723c 7f41 8f3b 139c 3e3c
000001c0: 68e3 4fbc aa14 32bc 33f9 133c 67fc 1c3b
000001d0: ee40 c63b 58ed 27bc 6550 8ebc fb19 d9bb
000001e0: 9849 003c 55d8 5a3a 12c7 b1bb d31a 23bc
000001f0: a9c3 003a 6312 b839 7ce2 3e3a bbb4 a93a
00000200: 1dac 4abc 8516 cabb 9733 a5bc fba0 14bc
00000210: 725e 843c b9d9 373c 35fa 3b3c 0b82 a0bc
00000220: af1e 04bc 74b8 afbc 666e 92bb 48de b0bc
00000230: 39a3 07bc 5e3a 48bc 8759 8abc 56c1 a5bc
00000240: 36af 3c3d 6c7f 4d3d 3531 7c3d efac df3b
00000250: 1f01 703c db7f d137 3006 553c aba1 fdba
00000260: b6cc 893c aa2e 133c 67da dd3a 6103 4a3b
00000270: 9784 843c 4525 003d 87f2 ba3c 0146 063c
00000280: 2728 4e3c 8f86 cb3b 3b86 4abb 173e 9a3b
00000290: 940a 41bc 23ca 70bb 6bb8 773b 47f5 1abc
000002a0: 7f32 f43b 7d43 2a3c 77d7 e2bb 069e 8d3c
000002b0: 96c5 6b3b 7749 73bb 8770 cdbb ca43 a8bc
000002c0: 7613 03bd 3e51 f93c 8474 223b 78b7 29bb
000002d0: fb71 a33b a1ed cfbb c46f b33b 5f87 1dbb
000002e0: 06eb 4fbc 0cd8 683c 8cef 433c 0ed3 223d
000002f0: b66b 983c 12ee 893c 936c a73a 3c0d 78bc
00000300: ffbd 16bb 8ee5 76bc e253 52bd 3daf 973c
00000310: 2a53 7f3b 63e8 b1bc 922f 003b 5394 3a3c
00000320: e25b f5bb 53d5 d0bb d12c 3dbc 6731 afbc
00000330: e8e7 1c3d ae7e 173c 3784 6b3a 5781 bb3c
00000340: f23a 3a3b c118 0d3a dc0f e93c 802b 88bc
00000350: e587 0a3c 3c50 a73c 6187 5d3c 0aee 983b
00000360: 1580 db3b 5959 683c fe37 cdbb dd7c 6ebb
00000370: 35e9 063c 1167 edbb d44f 1bbc daf0 e9ba
00000380: c07b a4bc 0bc8 8a3d 4476 903d bb6e a63d
00000390: f260 2d3c af1e 093d ea28 8f3c e6b1 8bbc
000003a0: 46ab 603c 0e2a 443d 090f abbb 4b24 d23a
000003b0: dca3 3abc 5aa2 27bb 910b 2b3c 327a 94ba
000003c0: 5101 81bc 550c 6f3c 4659 b2bc 3f02 d43b
000003d0: 7468 27bb 399d d8bc 7f96 053c af50 56bc
000003e0: 36e7 63bc 8554 f53b c82b bcbb 1b06 0fbc
000003f0: d7cd 4a3c 1e06 d03c 182e 04b9 a1a1 9c3b

45 f4 [32]
-0.9876442 -0.5730391 0.24176481 -0.1955811 -0.63301075 0.34056598 -0.9157471 0.65030223
0.26016375 -0.46545726 0.33029428 -0.5477017 -0.8768753 0.63696754 -0.64720476 -0.28603157
-1.1642118 -0.68296003 0.10889423 -0.30630988 0.44217426 -0.015639782 -0.6834114 0.2375867
-0.8528528 -0.2255232 -0.5730451 0.41303927 -0.9590689 -0.083116576 -0.35299557 0.628371
00000000: 40d6 7cbf b1b2 12bf 3291 773e 6946 48be
00000010: fe0c 22bf aa5e ae3e 676e 6abf 357a 263f
00000020: 2f34 853e 6a50 eebe 551c a93e 2e36 0cbf
00000030: e67a 60bf 4e10 233f 36af 25bf bb72 92be
00000040: e404 95bf 78d6 2ebf f003 df3d a6d4 9cbe
00000050: aa64 e23e 001f 80bc 0df4 2ebf ee49 733e
00000060: 9054 5abf 8eef 66be 15b3 12bf e279 d33e
00000070: 8a85 75bf 0639 aabd d6bb b4be ecdc 203f
