weights/face_binary_cls.pth (torch, 83070 bytes, 20 tensors)

backbone.0.conv.weight f4 [16, 3, 3, 3]
0.2038791 0.16079795 -0.058654647 0.15554135 0.2101047 0.21781963 0.11293252 -0.07087891
-0.14065705 -0.19848077 -0.37251008 -0.30123386 -0.2498684 -0.14762647 -0.029197492 -0.27424008
-0.39798608 -0.39417747 0.013294352 0.06526917 -0.09030717 0.111438215 0.10870256 -0.05199322
0.14056066 -0.18765587 -0.13024539 -0.4630242 -0.3445662 -0.12237372 -0.36031115 -0.43184558
-0.3367418 0.097221345 -0.14671405 -0.11786474 -0.35832128 -0.4364414 -0.11016463 -0.3793624
-0.5583183 -0.22781257 0.0057452894 0.094773844 0.1398824 0.06077689 -0.14384939 -0.07515429
-0.21676998 -0.28299925 -0.012430949 0.13344952 -0.041252356 0.06829388 -0.32819748 -0.18143256
-0.09743708 -0.29427722 -0.44251224 -0.40509102 -0.17986591 -0.20787565 -0.15882528 0.3104033
0.16618313 0.29459095 0.05992718 0.13056366 0.101629496 0.27157423 0.07320476 -0.09175267
0.1266538 0.27813667 0.13582873 0.105513714 0.089709304 -0.10811918 0.24219845 0.045332868
0.24581912 -0.10346231 -0.3153031 -0.31104425 0.4181316 0.07718648 0.1843925 0.13288578
-0.084960125 -0.0848899 -0.059277605 -0.015670743 -0.11454115 0.31695816 0.23054768 0.078227684
-0.077658005 -0.29193106 -0.109044954 -0.13866036 -0.11711117 0.15720661 -0.032835823 0.24570017
0.38306364 -0.36252043 -0.34233752 -0.11875498 0.03140568 -0.007865548 0.20807187 0.10425921
0.31186175 0.2954869 -0.29156741 -0.3160936 0.00787356 -0.2376609 0.15111968 0.3159562
-0.05144623 0.20783268 0.20050453 -0.39946198 -0.41744295 -0.18582685 -0.049038667 0.018676063
0.3347198 -0.14420296 -0.039884616 0.39630964 -0.3711411 -0.21318358 0.26745525 0.36011195
0.483731 0.1424017 0.3513119 0.79490316 0.514266 0.096213594 0.3193303 0.31867942
-0.017696783 0.16019554 0.20025234 0.06058524 0.40983683 0.04716432 0.14196117 0.11010306
0.06356048 0.00015593616 0.15805508 -0.083790034 0.18795975 0.08989657 0.033348255 0.14051354
0.2317444 -0.09554349 -0.096808374 -0.19277936 -0.11691454 0.31880125 0.07442272 -0.05171608
-0.212343 0.15766235 0.048265457 -0.24410187 0.07713461 -0.15631095 0.23442437 0.12860896
0.13432471 -0.2700642 0.10464768 -0.345308 -0.23018691 0.2553768 0.06946719 -0.022575498
0.11236117 0.0020284457 -0.41944134 0.076811515 -0.069173105 -0.05562472 -0.32292977 -0.07115353
-0.11542494 -0.18362343 -0.21075176 -0.08184633 -0.50312966 -0.025697581 0.19476585 -0.18682076
-0.06131916 0.23069137 -0.17421778 0.26883823 0.29886454 -0.28213808 0.31055015 -0.027187524
-0.58102113 -0.11734826 -0.06928467 -0.10484026 -0.12957528 -0.3690367 -0.505172 -0.21363363
-0.0826841 0.11383354 0.24516577 -0.4969777 -0.3222707 -0.17955554 -0.25616077 -0.3656302
-0.11087018 0.037321452 0.2890885 0.4290115 -0.5530156 -0.4422024 0.10488905 -0.2729375
-0.58084124 -0.30326742 0.19863966 -0.006191359 0.2638206 -0.058456924 -0.21788768 -0.08630111
-0.15865982 -0.186613 -0.016610863 0.28130126 -0.22735325 -0.42104858 0.27732453 -0.041804645
-0.35987476 0.15589117 0.034969833 0.011470494 0.29332215 -0.10057927 -0.43255857 0.3123847
00000000: afc5 503e 38a8 243e db3f 70bd 3b46 1f3e
00000010: b025 573e 1c0c 5f3e 2a49 e73d f628 91bd
00000020: 6708 10be 8b3e 4bbe a4b9 bebe 533b 9abe
00000030: 80dd 7fbe 652b 17be 942f efbc 3269 8cbe
00000040: d5c4 cbbe a1d1 c9be 8ed0 593c d8ab 853d
00000050: f7f2 b8bd b839 e43d 739f de3d d8f6 54bd
00000060: 22ef 0f3e dc28 40be 0c5f 05be 8211 edbe
00000070: fb6a b0be 139f fabd b47a b8be dd1a ddbe
00000080: 6c69 acbe fc1b c73d 353c 16be 1263 f1bd
00000090: e375 b7be 3f75 dfbe fe9d e1bd ca3b c2be
000000a0: f3ed 0ebf b347 69be fb42 bc3b ca18 c23d
000000b0: 553d 0f3e 30f1 783d 414d 13be 7eea 99bd
000000c0: f3f8 5dbe 47e5 90be 2eab 4bbc fea6 083e
000000d0: 3bf8 28bd a9dd 8b3d 8009 a8be 75c9 39be
000000e0: 188d c7bd 81ab 96be f790 e2be 1768 cfbe
000000f0: c52e 38be 5bdd 54be 18a3 22be 2eed 9e3e
00000100: e92b 2a3e a0d4 963e 3476 753d 7bb2 053e
00000110: 2023 d03d c70b 8b3e 61ec 953d d3e8 bbbd
00000120: 89b1 013e ee67 8e3e b016 0b3e 9317 d83d
00000130: 83b9 b73d 976d ddbd df02 783e f5ae 393d
00000140: 02b8 7b3e 0ce4 d3bd 686f a1be 3141 9fbe
00000150: 5815 d63e f213 9e3d 63d1 3c3e 3613 083e
00000160: 93ff adbd c2da adbd 13cd 72bd ee5f 80bc
00000170: 8d94 eabd 5748 a23e b114 6c3e d635 a03d
00000180: 290b 9fbd fd77 95be f652 dfbd fbfc 0dbe
00000190: fbd7 efbd c5fa 203e db7e 06bd d398 7b3e
000001a0: eb20 c43e 479c b9be dd46 afbe d035 f3bd
000001b0: 3ea3 003d 80de 00bc cb10 553e da85 d53d
000001c0: 58ac 9f3e 0f4a 973e 5348 95be 05d7 a1be
000001d0: 1b00 013c 615d 73be 1ebf 1a3e 03c5 a13e
000001e0: 48b9 52bd 17d2 543e 0f51 4d3e 4886 ccbe
000001f0: 15bb d5be 6549 3ebe c5dc 48bd 8bfe 983c
00000200: 6560 ab3e f1a9 13be 0d5e 23bd 19e9 ca3e
00000210: 3506 bebe cc4c 5abe e5ef 883e 9860 b83e
00000220: 97ab f73e c0d1 113e 27df b33e c67e 4b3f
00000230: f0a6 033f a20b c53d 437f a33e f329 a33e
00000240: d8f8 90bc 4d0a 243e f30e 4d3e 3b28 783d
00000250: 22d6 d13e 602f 413d 455e 113e b77d e13d
00000260: ff2b 823d cb82 2339 31d9 213e 1c9a abbd
00000270: 8578 403e b11b b83d 2e98 083d c8e2 0f3e
00000280: 674e 6d3e 4eac c3bd 7843 c6bd f467 45be
00000290: e470 efbd eb39 a33e f06a 983d 3ed4 53bd
000002a0: 7270 59be 3d72 213e 00b2 453d d7f5 79be
000002b0: c0f8 9d3d fa0f 20be f10c 703e 11b2 033e
000002c0: 6b8c 093e db45 8abe 8651 d63d 36cc b0be
000002d0: 1eb6 6bbe bfc0 823e d044 8e3d 40f0 b8bc
000002e0: 9d1d e63d acef 043b 04c1 d6be 5b4f 9d3d
000002f0: a1aa 8dbd bfd6 63bd 0d57 a5be f1b8 91bd
00000300: e963 ecbd c807 3cbe 4fcf 57be 0c9f a7bd
00000310: 1bcd 00bf bc83 d2bc b370 473e f14d 3fbe
00000320: cd29 7bbd 5c3a 6c3e 2566 32be 2aa5 893e
00000330: c604 993e 6774 90be 6e00 9f3e 5fb8 debc
00000340: cdbd 14bf 4954 f0bd 1fe5 8dbd 7eb6 d6bd
00000350: 62af 04be 61f2 bcbe f452 01bf c6c2 5abe
00000360: 4856 a9bd 8f21 e93d bc0c 7b3e dc73 febe
00000370: aa00 a5be 68dd 37be 8127 83be e233 bbbe
00000380: e80f e3bd 61de 183d 6803 943e 65a7 db3e
00000390: 6e92 0dbf 5a68 e2be 12d0 d63d 77be 8bbe
000003a0: 03b2 14bf de45 9bbe 3268 4b3e e2e0 cabb
000003b0: 7e13 873e 8770 6fbd f31d 5fbe a3be b0bd
000003c0: b877 22be 7a17 3fbe 8113 88bc b806 903e
000003d0: 4acf 68be ae93 d7be 7bfd 8d3e 593b 2bbd
000003e0: 8141 b8be efa1 1f3e 873c 0f3d bdee 3b3c
000003f0: 522e 963e 81fc cdbd 5178 ddbe e3f0 9f3e

backbone.0.conv.bias f4 [16]
-0.15245415 -0.24439782 -0.070490584 0.10649965 0.23344405 0.16828239 -0.15269376 -0.16871516
-0.14611009 0.21251896 0.34270778 -0.19706258 -0.019498238 0.13713585 -0.009327154 -0.05122017
00000000: f11c 1cbe 6c43 7abe 5e5d 90bd 7d1c da3d
00000010: f50b 6f3e 3852 2c3e c15b 1cbe abc3 2cbe
00000020: e29d 15be 929e 593e 6577 af3e c6ca 49be
00000030: c5ba 9fbc 576d 0c3e ebd0 18bc 3ecc 51bd

backbone.0.bn.weight f4 [16]
0.8445393 0.9588193 0.79281193 1.0954146 0.9018873 0.98454124 1.291066 0.7731799
1.0513391 0.79142106 0.8851064 0.8676388 0.83226335 0.8911254 0.8574711 1.406551
00000000: ba33 583f 2f75 753f b9f5 4a3f 8c36 8c3f
00000010: 16e2 663f e50a 7c3f a741 a53f 1eef 453f
00000020: 4892 863f 929a 4a3f 5596 623f 941d 5e3f
00000030: 360f 553f cb20 643f 3a83 5b3f dd09 b43f

backbone.0.bn.bias f4 [16]
-0.72782207 0.3737109 0.34740537 -0.08603872 0.080039 0.31066945 -0.44195935 0.13090266
0.36901823 -0.04199981 0.12325444 -0.14177969 0.17033759 0.17878431 -0.41920474 -0.0907885
00000000: 8c52 3abf 0957 bf3e 1edf b13e 1235 b0bd
00000010: 7deb a33d 1110 9f3e 7f48 e2be 590b 063e
00000020: f5ef bc3e fe07 2cbd d36c fc3d b22e 11be
00000030: fa6c 2e3e 3c13 373e 01a2 d6be 52ef b9bd

backbone.0.bn.running_mean f4 [16]
-0.8029237 -2.2679524 -0.13558029 -0.07543175 0.30065814 2.521366 -0.40995806 -1.4850729
-1.4977221 0.07062557 0.7042534 0.97872716 -0.0038246347 -1.9173541 -0.263083 -0.066935435
00000000: 688c 4dbf 2226 11c0 8fd5 0abe f67b 9abd
00000010: ddef 993e 0f5e 2140 06e6 d1be de16 bebf
00000020: 5cb5 bfbf 24a4 903d f349 343f dd8d 7a3f
00000030: b9a6 7abb dc6b f5bf d1b2 86be 7215 89bd

backbone.0.bn.running_var f4 [16]
0.1903502 1.379676 0.10964352 0.02884633 0.059661694 1.7928665 0.03378791 0.62722117
0.6784094 0.07313423 0.08348713 0.47061658 0.048295345 1.3853949 0.031748593 0.011874017
00000000: 2aeb 423e 3999 b03f c88c e03d 234f ec3c
00000010: d25f 743d a67c e53f 3165 0a3d 9191 203f
00000020: 3dac 2d3f 66c7 953d 4dfb aa3d a8f4 f03e
00000030: 57d1 453d 9f54 b13f d00a 023d 3d8b 423c

backbone.2.conv.weight f4 [32, 16, 3, 3]
0.05017848 0.07146245 0.016239937 0.14425734 -0.010205089 -0.01843264 -0.0075794393 0.061218955
0.06780656 -0.18063056 -0.1280899 -0.16842693 -0.14104676 -0.20470102 -0.083788835 -0.20092191
-0.053781506 -0.1245731 0.12578486 0.058344577 0.10274027 0.12165331 0.13255656 -0.015577543
0.07601947 0.037080478 -0.002776357 -0.12113133 -0.024959743 0.11575834 0.20693614 0.04876403
0.27749372 0.039939415 0.075301476 -0.0054881102 -0.0047317226 -0.029804965 -0.06377388 -0.00852091
-0.017899567 0.21725218 0.029252669 -0.14232014 0.058861014 0.18498082 -0.007040446 0.092831545
0.101864 0.02832498 0.22177178 0.0540024 -0.00699814 0.06841582 0.020947404 0.012771082
0.082384475 0.16069122 0.00870173 0.15652764 0.17697075 0.18728875 0.1377645 -0.01785828
0.09539942 0.10799487 0.13898821 -0.065676376 0.15707523 0.038761068 -0.04637009 0.07951901
-0.31205934 -0.0654046 -0.07030715 -0.25982693 -0.11539056 -0.16065943 -0.12023786 -0.16181721
-0.005938985 -0.01773041 -0.12239135 0.030808032 -0.064736076 -0.07255577 -0.01732453 0.22982149
-0.06476758 0.051197633 -0.0013268057 0.14260733 0.07417246 0.17390591 0.17704341 0.250888
0.17045774 -0.03908453 0.10694275 0.13641971 0.03808742 0.13945916 0.1620898 0.17061205
0.25017446 0.10147402 0.12165017 0.061573558 0.10248306 0.0164304 0.16033657 0.11554166
0.12697728 0.21085718 0.2235133 0.06544243 0.084030464 -0.18192352 -0.15731339 -0.058117874
-0.24240217 -0.09845293 -0.12181648 -0.09021055 -0.016405886 -0.113924995 0.03944658 -0.09361829
0.032437157 -0.04709108 -0.021634826 0.12386632 -0.0010132403 0.014266282 -0.016215967 -0.16811407
-0.08512416 0.09284929 0.18192084 0.088287376 0.22648883 0.15904905 -0.14652169 0.099863626
0.043127496 0.075053975 -0.23395993 -0.21115088 -0.03086702 -0.025313951 -0.35375398 -0.15193509
-0.08911506 0.09769094 0.59848547 0.17118175 -0.13222021 0.46648574 0.42862383 -0.4559206
0.01709804 0.35604602 -0.2352297 -0.06009503 0.17129111 -0.28057766 -0.13886485 0.052913625
-0.27024698 -0.20478766 0.06783701 -0.02244774 -0.34106982 -0.46623805 0.04125479 -0.33173698
-0.51559603 -0.09156177 -0.31140545 -0.38892555 -0.13367677 0.4920281 0.7552793 -0.07923607
0.061127197 0.5123348 0.053164914 0.13491246 0.19480991 0.1023206 -0.50133437 0.14462708
0.42974082 -0.39108083 -0.33868667 0.5954621 0.013083569 -0.26719725 -0.03767835 -0.10106793
-0.17460714 -0.34158212 -0.24304302 -0.2666037 -0.2687522 -0.43242338 -0.20323928 -0.018849634
-0.060492318 0.02731804 -0.053156238 -0.06959256 -0.034745533 -0.084395856 -0.10460261 -0.02596945
0.017107667 0.6357447 0.14869249 -0.35265547 0.28854182 0.37938842 -0.59558624 -0.0716907
0.18426682 0.28220907 0.36869335 -0.036540523 0.23485929 0.80945116 0.33941737 -0.14848652
0.2625876 0.35167852 0.28950596 -0.6348486 -0.09897094 0.5233078 -0.15814435 -0.34834972
0.57112163 0.07942465 -0.3183014 -0.09982573 -0.67169595 -0.12983485 0.09333709 -0.49416474
-0.4076114 0.37025782 -0.22314923 -0.43647265 0.024667887 -0.17847587 0.24474327 0.13359667
00000000: f387 4d3d e85a 923d 9e09 853c 32b8 133e
00000010: 3f33 27bc 0c00 97bc f25c f8bb bac0 7a3d
00000020: 2ade 8a3d 38f7 38be 002a 03be 1c78 2cbe
00000030: 906e 10be 259d 51be 7b99 abbd 79be 4dbe
00000040: ff49 5cbd 2e20 ffbd bfcd 003e b9fa 6e3d
00000050: 7e69 d23d 5f25 f93d e8bc 073e f338 7fbc
00000060: 19b0 9b3d b3e1 173d 8bf3 35bb b413 f8bd
00000070: 6078 ccbc b512 ed3d 11e7 533e cbbc 473d
00000080: a813 8e3e 8397 233d a937 9a3d 9bd5 b3bb
00000090: 910c 9bbb 8b29 f4bc e19b 82bd 499b 0bbc
000000a0: 1da2 92bc 5b77 5e3e 4ba3 ef3c 5fbc 11be
000000b0: 3f18 713d 9d6b 3d3e 8bb3 e6bb 771e be3d
000000c0: 139e d03d ca09 e83c 2418 633e 9f31 5d3d
000000d0: a750 e5bb 981d 8c3d e499 ab3c cd3d 513c
000000e0: 31b9 a83d 3d8c 243e b391 0e3c c848 203e
000000f0: d237 353e 9fc8 3f3e 2312 0d3e 874b 92bc
00000100: c560 c33d 6a2c dd3d ed52 0e3e 5681 86bd
00000110: 54d8 203e edc3 1e3d 90ee 3dbd ddda a23d
00000120: 3ec6 9fbe d9f2 85bd 32fd 8fbd 0908 85be
00000130: e351 ecbd e883 24be 443f f6bd 69b3 25be
00000140: d19b c2bb 5d3f 91bc 51a8 fabd 2061 fc3c
00000150: 5994 84bd 1f98 94bd 2cec 8dbc 5356 6b3e
00000160: dda4 84bd 9cb4 513d 36e8 adba a807 123e
00000170: bbe7 973d 6414 323e de4a 353e 6474 803e
00000180: 798c 2e3e 1a17 20bd cd04 db3d 9cb1 0b3e
00000190: 8e01 1c3d 62ce 0e3e defa 253e edb4 2e3e
000001a0: de16 803e 9cd1 cf3d b923 f93d 8e34 7c3d
000001b0: a3e2 d13d 0c99 863c 452f 243e 1ba1 ec3d
000001c0: 5506 023e f2ea 573e ace0 643e ae06 863d
000001d0: 2a18 ac3d 294a 3abe c316 21be 020d 6ebd
000001e0: 4638 78be b1a1 c9bd eb7a f9bd 4fc0 b8bd
000001f0: a365 86bc 8251 e9bd bd92 213d f2ba bfbd
00000200: d3dc 043d 94e2 40bd 853b b1bc a0ad fd3d
00000210: b4ce 84ba 20bd 693c 59d7 84bc 1826 2cbe
00000220: 9355 aebd c527 be3d 7549 3a3e 03d0 b43d
00000230: b0ec 673e c1dd 223e c809 16be 4d85 cc3d
00000240: 75a6 303d e6b5 993d 3193 6fbe f037 58be
00000250: d5dc fcbc 345f cfbc 3e1f b5be df94 1bbe
00000260: f581 b6bd 3012 c83d 5836 193f 454a 2f3e
00000270: bc64 07be 38d7 ee3e 9574 db3e 6d6e e9be
00000280: 3011 8c3c aa4b b63e 0ee0 70be 3526 76bd
00000290: f066 2f3e e0a7 8fbe 9632 0ebe f5bb 583d
000002a0: d05d 8abe dbb3 51be 21ee 8a3d 53e4 b7bc
000002b0: b4a0 aebe c1b6 eebe c8fa 283d 6ed9 a9be
000002c0: 1afe 03bf bd84 bbbd 8970 9fbe 4021 c7be
000002d0: 90e2 08be 1beb fb3e fc59 413f 8546 a2bd
000002e0: 8360 7a3d 6028 033f 74c3 593d 7e26 0a3e
000002f0: 407c 473e 768d d13d 7357 00bf 1f19 143e
00000300: fd06 dc3e bf3b c8be 5768 adbe 3470 183f
00000310: 775c 563c 14ce 88be 9d54 1abd b4fc cebd
00000320: 37cc 32be dae3 aebe 45e0 78be 4880 88be
00000330: e399 89be 9966 ddbe f51d 50be 8c6a 9abc
00000340: cbc6 77bd 15ca df3c 5bba 59bd 8b86 8ebd
00000350: 5551 0ebd bcd7 acbd e539 d6bd e2bd d4bc
00000360: 6125 8c3c 2ac0 223f d842 183e 428f b4be
00000370: c1bb 933e 333f c23e 5778 18bf 93d2 92bd
00000380: 71b0 3c3e b57d 903e 60c5 bc3e 84ab 15bd
00000390: f47e 703e 3138 4f3f 1dc8 ad3e da0c 18be
000003a0: e271 863e 350f b43e 203a 943e 7085 22bf
000003b0: 47b1 cabd 80f7 053f 98f0 21be e55a b2be
000003c0: 0735 123f 64a9 a23d 67f8 a2be 6f71 ccbd
000003d0: 44f4 2bbf 6df3 04be 8427 bf3d 2903 fdbe
000003e0: 71b2 d0be 6f92 bd3e 3b81 64be 5879 dfbe
000003f0: 4f14 ca3c 61c2 36be fb9d 7a3e 91cd 083e

backbone.2.conv.bias f4 [32]
-0.017944738 -0.036019754 -0.038739447 0.039379288 0.0015794318 0.098477475 0.039786562 -0.006781538
-0.024106767 0.021112034 0.06616458 -0.101342544 -0.07865478 0.025252778 -0.08886797 -0.06462529
0.03734107 0.041046258 0.112444475 -0.016468083 0.10657416 -0.04919814 0.038197465 0.04437427
0.0005960831 0.01836407 0.005223934 -0.023071643 0.037013654 -0.015878595 -0.051912546 0.044244982
00000000: d800 93bc 7389 13bd 41ad 1ebd 2d4c 213d
00000010: f004 cf3a 8fae c93d 3cf7 223d aa37 debb
00000020: 8e7b c5bc 25f3 ac3c 4c81 873d ae8c cfbd
00000030: c215 a1bd eade ce3c 6900 b6bd 445a 84bd
00000040: f3f2 183d 1f20 283d 4a49 e63d 13e8 86bc
00000050: 8e43 da3d fd83 49bd f274 1c3d cbc1 353d
00000060: 7642 1c3a 3f70 963c 892d ab3b be00 bdbc
00000070: a19b 173d d413 82bc 40a2 54bd 3a3a 353d

backbone.2.bn.weight f4 [32]
0.8626971 1.1291219 0.85752934 0.9203015 0.7695188 1.2695583 0.8480929 1.084856
1.015158 1.0499512 0.7212412 1.212126 0.8748653 0.80550027 0.8422957 1.1428514
1.0888993 1.0153922 0.8004729 1.0511496 1.038445 0.84418786 0.9478362 0.99458677
0.70726055 1.1876483 1.310516 1.0093207 0.85222244 1.4200157 0.96324056 0.94648963
00000000: b8d9 5c3f 1187 903f 0b87 5b3f e198 6b3f
00000010: 2fff 443f e380 a23f 9e1c 593f 90dc 8a3f
00000020: b3f0 813f cd64 863f 43a3 383f f226 9b3f
00000030: 2cf7 5f3f 4435 4e3f b1a0 573f f448 923f
00000040: 0d61 8b3f 5ff8 813f cbeb 4c3f 128c 863f
00000050: c4eb 843f b21c 583f 65a5 723f 3d9d 7e3f
00000060: 070f 353f dc04 983f fdbe a73f 6c31 813f
00000070: 402b 5a3f 13c3 b53f ef96 763f 254d 723f

backbone.2.bn.bias f4 [32]
-0.50821495 0.11799115 -0.21777447 -0.14743689 -0.022261105 -0.14281304 -0.35615957 0.020144202
-0.028022122 -0.34823665 -0.31153303 -0.21950528 0.001608251 -0.1252052 -0.22749656 -0.13533647
0.01657332 -0.20510706 -0.29446754 -0.11202706 -0.15733965 -0.29096037 -0.23002504 -0.13926446
-0.20755301 -0.22410095 -0.27522203 -0.17542239 -0.0075788414 0.08996479 0.06790073 -0.21811627
00000000: 601a 02bf 58a5 f13d 4500 5fbe b2f9 16be
00000010: ec5c b6bc 953d 12be 8c5a b6be 7405 a53c
00000020: a68e e5bc 134c b2be 4281 9fbe fec5 60be
00000030: f3cb d23a cb35 00be dcf4 68be a595 0abe
00000040: c5c4 873c 9607 52be 73c4 96be 716e e5bd
00000050: a51d 21be c2f8 94be af8b 6bbe 589b 0ebe
00000060: c788 54be b87a 65be e7e9 8cbe eda1 33be
00000070: ee57 f8bb 763f b83d 8a0f 8b3d df59 5fbe

backbone.2.bn.running_mean f4 [32]
1.3683517 -0.04687376 4.4981093 -0.9445806 -2.8963675 -1.0905266 -4.712311 -3.2255547
0.7092039 2.6596727 -3.4020479 -1.4812976 5.2228413 -5.154343 7.4436903 -4.3958654
-0.01015575 -2.8988357 -4.397508 9.059452 -2.9011223 1.3994434 2.1535704 0.05437967
0.2698902 -2.4084191 -1.8227822 6.2101564 -3.5074663 -1.2050507 -0.94614786 7.811495
00000000: 2626 af3f b3fe 3fbd 83f0 8f40 09d0 71bf
00000010: 165e 39c0 6096 8bbf 40cb 96c0 7d6f 4ec0
00000020: 638e 353f 1438 2a40 27bb 59c0 299b bdbf
00000030: 8421 a740 61f0 a4c0 b632 ee40 eeaa 8cc0
00000040: 4e64 26bc 8686 39c0 63b8 8cc0 84f3 1041
00000050: fdab 39c0 f620 b33f 19d4 0940 38bd 5e3d
00000060: 0c2f 8a3e 8a23 1ac0 ed50 e9bf 9ab9 c640
00000070: 547a 60c0 1a3f 9abf bf36 72bf c4f7 f940

backbone.2.bn.running_var f4 [32]
9.392021 10.1919155 15.144551 9.026526 14.599989 7.969071 4.3306293 14.822504
8.229067 9.511594 8.605321 6.080381 24.798767 15.15529 12.533502 5.4659095
10.673369 9.891908 3.541924 21.88542 7.2344637 7.6035333 9.02909 8.487548
5.8061023 10.816031 6.1285186 6.907767 8.331175 8.427976 12.39235 7.618137
00000000: b845 1641 1612 2341 1550 7241 a76c 1041
00000010: 8e99 6941 a102 ff40 8494 8a40 fa28 6d41
00000020: 42aa 0341 7d2f 1841 65af 0941 7b92 c240
00000030: e063 c641 117c 7241 3989 4841 bbe8 ae40
00000040: 1fc6 2a41 4145 1e41 e2ae 6240 5715 af41
00000050: ba80 e740 2550 f340 2777 1041 ffcc 0741
00000060: 97cb b940 770e 2d41 d31c c440 6d0c dd40
00000070: 7e4c 0541 fdd8 0641 1147 4641 c7c7 f340

backbone.4.conv.weight f4 [32, 32, 3, 3]
-0.22083028 -0.14470237 -0.055932343 -0.16898969 -0.030918363 -0.09393336 -0.1517675 -0.07716534
-0.2390471 0.43193483 0.095223464 0.45207694 0.08121629 0.06682868 0.1270088 0.15003999
0.25855088 0.014205929 -0.006415616 -0.047008675 -0.053731367 0.022950498 -0.16659491 -0.06822545
-0.034727458 -0.025127793 -0.06096587 0.14309348 0.12523244 -0.061834924 -0.03006553 0.11261084
0.049346596 0.11052942 0.032721594 -0.08905469 -0.006467896 0.016643852 -0.07898052 -0.023038523
0.03915713 -0.022425994 -0.15543543 0.025788136 -0.0493084 0.118419275 0.14196382 -0.06699302
-0.2715112 -0.048929445 -0.09610046 -0.054242637 -0.15458868 -0.2186894 -0.012516116 -0.14295995
-0.05538435 0.041339554 -0.2972891 -0.09401244 -0.15221238 -0.083733335 -0.17163797 -0.06931229
-0.0018184971 -0.060365275 0.07894489 0.062280934 -0.0155733265 -0.14381966 -0.09406903 0.020713652
-0.07331275 -0.11574962 -0.041016225 0.047159825 -0.015941987 0.08035009 0.047643684 -0.056676913
-0.034962308 -0.40054935 -0.16283871 -0.30270937 -0.24759835 -0.3006757 -0.33394933 -0.20743994
-0.3353652 -0.14069103 0.053230476 0.15336223 0.121415175 0.15167181 0.33570898 0.25643662
0.19121057 0.40193915 0.16261512 0.12165127 -0.024442349 -0.02388589 0.2376505 0.033847094
0.071166985 0.18953045 0.28072527 0.13584599 0.17547888 0.12067849 0.035690337 0.09497586
-0.10358536 -0.08873301 0.07373133 0.019555507 0.049392324 -0.08367374 -0.1418228 -0.054088023
0.06392233 0.0068153013 -0.044290993 -0.08127089 0.0040099947 0.0028661946 0.0059445566 0.010570012
-0.10098637 -0.0503476 -0.16463128 -0.0740579 0.13191202 0.091607936 0.09366426 -0.15995394
-0.06583191 -0.17511398 -0.036481448 -0.17625777 -0.0675847 -0.09976842 -0.13787216 -0.16518307
0.37606624 0.4095768 0.5026434 0.05572586 0.119587965 0.00020388309 0.10614443 -0.015797252
0.13732399 0.07333712 0.013817959 0.025164487 0.1320605 0.2554065 0.18630207 0.066904984
0.102722615 0.050705772 -0.025228158 0.03842753 -0.096187495 -0.029994804 0.030858163 -0.07721162
0.060838584 0.08483796 -0.05651466 0.14112845 0.02936975 -0.0303059 -0.051182605 -0.16768399
-0.26124716 0.24845676 0.020236798 -0.021141356 0.040720265 -0.051802628 0.044704303 -0.01962313
-0.10360019 0.116020106 0.0976297 0.3245248 0.15189461 0.13745385 0.010427888 -0.12359774
-0.01877773 -0.12302223 -0.4192033 0.15116094 0.03180544 -0.17729366 0.015967919 0.09296768
-0.061127998 -0.052028112 -0.094261035 -0.17458825 0.31272855 0.07548596 0.0073344847 0.186858
0.023198428 0.0043940516 0.23225747 -0.1356999 0.06902633 0.16673589 0.11038208 0.03810049
0.054685663 0.1157735 -0.051127587 -0.029708067 0.06722264 -0.059145786 -0.07738786 -0.014570832
-0.16391563 0.5532095 0.5758533 0.6634322 0.086390115 0.2732931 0.14266567 -0.13921271
0.11194676 0.3909743 -0.042617068 0.013088525 -0.092997916 -0.020881943 0.085227385 -0.009247801
-0.12855984 0.119111516 -0.17773311 0.05281924 -0.02085377 -0.21586645 0.06656338 -0.1067877
-0.11355825 0.06112083 -0.046880372 -0.07126508 0.101052016 0.20730583 -0.0010290921 0.039022677
00000000: 5521 62be dc2c 14be 5019 65bd a20b 2dbe
00000010: 8248 fdbc 2260 c0bd f168 1bbe dd08 9ebd
00000020: c3c8 74be 9026 dd3e 8504 c33d a176 e73e
00000030: ba54 a63d 7add 883d 980e 023e 15a4 193e
00000040: c860 843e fcbf 683c 163a d2bb 2b8c 40bd
00000050: 6c15 5cbd af02 bc3c db97 2abe c9b9 8bbd
00000060: 613e 0ebd cdd8 cdbc 59b7 79bd 1987 123e
00000070: ef3c 003e 9e46 7dbd fd4b f6bc 83a0 e63d
00000080: a81f 4a3d 405d e23d 1407 063d 4e62 b6bd
00000090: a5f0 d3bb b058 883c 8ac0 a1bd 49bb bcbc
000000a0: 3a63 203d b8b6 b7bc 772a 1fbe a441 d33c
000000b0: 9bf7 49bd ce85 f23d f75e 113e a333 89bd
000000c0: 8403 8bbe 3e6a 48bd 51d0 c4bd 872d 5ebd
000000d0: 7f4c 1ebe 1df0 5fbe 6510 4dbc 1864 12be
000000e0: b3da 62bd aa53 293d 4736 98be 9889 c0bd
000000f0: 90dd 1bbe 627c abbd ddc1 2fbe 9af3 8dbd
00000100: a35a eeba 9441 77bd dcad a13d 4b1a 7f3d
00000110: 4427 7fbc 7645 13be 43a7 c0bd adaf a93c
00000120: ff24 96bd 230e edbd a100 28bd a92a 413d
00000130: c598 82bc 978e a43d 0626 433d 0d26 68bd
00000140: a334 0fbd ce14 cdbe 31bf 26be b9fc 9abe
00000150: 6c8a 7dbe 2af2 99be 68fb aabe 236b 54be
00000160: fdb4 abbe 4f11 10be 3308 5a3d fd0a 1d3e
00000170: 85a8 f83d db4f 1b3e 0ce2 ab3e a94b 833e
00000180: b4cc 433e f8ca cd3e 9484 263e 4d24 f93d
00000190: 523b c8bc 58ac c3bc a75a 733e 40a3 0a3d
000001a0: ffbf 913d 4514 423e 39bb 8f3e 361b 0b3e
000001b0: bcb0 333e 4926 f73d 0830 123d b482 c23d
000001c0: 9024 d4bd a7b9 b5bd 7400 973d df32 a03c
000001d0: 9b4f 4a3d 235d abbd ff39 11be 678b 5dbd
000001e0: b6e9 823d e452 df3b 796a 35bd 5a71 a6bd
000001f0: 4666 833b c4d6 3b3b 8eca c23b d82d 2d3c
00000200: f1d1 cebd 4939 4ebd 1a95 28be abab 97bd
00000210: f213 073e f19c bb3d 0cd3 bf3d f7ca 23be
00000220: e1d2 86bd 1451 33be 926d 15bd eb7c 34be
00000230: d969 8abd 6353 ccbd 5c2e 0dbe c025 29be
00000240: c18b c03e 0db4 d13e 3dad 003f cd40 643d
00000250: 89ea f43d 73c9 5539 4062 d93d 3d69 81bc
00000260: a99e 0c3e c631 963d b964 623c c125 ce3c
00000270: de3a 073e a4c4 823e f8c5 3e3e 7b05 893d
00000280: 3c60 d23d dbb0 4f3d 48ab cebc 3066 1d3d
00000290: f3fd c4bd aab7 f5bc 42ca fc3c 2021 9ebd
000002a0: e131 793d 86bf ad3d eb7b 67bd fa83 103e
000002b0: d498 f03c 1444 f8bc daa4 51bd 5ab5 2bbe
000002c0: 30c2 85be 736b 7e3e a4c7 a53c a330 adbc
000002d0: 4bca 263d fe2e 54bd dc1b 373d b0c0 a0bc
000002e0: 562c d4bd f39b ed3d 15f2 c73d 1d28 a63e
000002f0: 438a 1b3e b4c0 0c3e bbd9 2a3c d020 fdbd
00000300: c1d3 99bc 14f3 fbbd d1a1 d6be efc9 1a3e
00000310: 6c46 023d 788c 35be 27cf 823c d765 be3d
00000320: 5a61 7abd 6e1b 55bd ee0b c1bd 43c7 32be
00000330: f51d a03e 6298 9a3d 1e56 f03b b457 3f3e
00000340: a10a be3c fafb 8f3b e7d4 6d3e eaf4 0abe
00000350: ad5d 8d3d d0bc 2a3e 0010 e23d 420f 1c3d
00000360: 13fe 5f3d a81a ed3d 296b 51bd 555e f3bc
00000370: 06ac 893d da42 72bd 877d 9ebd 80ba 6ebc
00000380: 80d9 27be 239f 0d3f 1f6b 133f b1d6 293f
00000390: 4ded b03d 13ed 8b3e f316 123e c78d 0ebe
000003a0: 5844 e53d c92d c83e 3c8f 2ebd 4171 563c
000003b0: b175 bebd 9c10 abbc b28b ae3d 1784 17bc
000003c0: 31a5 03be bdf0 f33d abff 35be fd58 583d
000003d0: 87d5 aabc 180c 5dbe 6252 883d 82b3 dabd
000003e0: 3a91 e8bd d659 7a3d a205 40bd 6df3 91bd
000003f0: 5cf4 ce3d fb47 543e 9ae2 86ba 3ed6 1f3d

backbone.4.conv.bias f4 [32]
-0.05311412 0.0468431 -0.039665766 0.013861367 -0.041541558 -0.057337224 0.05668739 0.07322326
0.021511545 -0.05348332 0.030740293 -0.030192526 0.022043226 0.0065217637 -0.039414056 0.01556776
-0.070684955 -0.0020522655 -0.050084814 -0.10045245 -0.0036589315 0.007190887 -0.054146778 -0.034722846
-0.055336535 0.040202685 0.017795615 0.02361865 0.01641638 0.052859496 0.08771138 -0.039920796
00000000: 318e 59bd 8dde 3f3d 9278 22bd c91a 633c
00000010: 7b27 2abd 70da 6abd 0931 683d 14f6 953d
00000020: fb38 b03c 5311 5bbd 11d3 fb3c 5156 f7bc
00000030: ff93 b43c 85b4 d53b a270 21bd eb0f 7f3c
00000040: 46c3 90bd 4d7f 06bb bc25 4dbd 04ba cdbd
00000050: afca 6fbb 88a1 eb3b 03c9 5dbd 8b39 0ebd
00000060: 90a8 62bd 92ab 243d 1cc8 913c e67b c13c
00000070: a57b 863c 3383 583d 06a2 b33d fd83 23bd

backbone.4.bn.weight f4 [32]
0.6371455 0.86606956 0.69853497 0.78552014 0.71453893 0.6912902 0.60175496 0.66976833
0.665593 0.41477546 0.55134004 0.69539434 0.4197841 0.644995 0.7126017 0.6391471
0.64919615 0.61761236 0.6012501 0.77237165 0.5691693 0.62571657 0.5554399 0.5437763
0.36076605 0.522043 0.67141634 0.7998019 0.68802506 0.83189803 0.66761065 0.57451725
00000000: f81b 233f bcb6 5d3f 30d3 323f d917 493f
00000010: 06ec 363f 65f8 303f 9d0c 1a3f f075 2b3f
00000020: 4e64 2a3f 735d d43e 9f24 0d3f 5d05 323f
00000030: f1ed d63e 641e 253f 116d 363f 259f 233f
00000040: b831 263f d81b 1e3f 87eb 193f 26ba 453f
00000050: 14b5 113f f62e 203f 4f31 0e3f ec34 0b3f
00000060: 54b6 b83e 9ca4 053f f1e1 2b3f d1bf 4c3f
00000070: 6922 303f 45f7 543f 88e8 2a3f 9013 133f

backbone.4.bn.bias f4 [32]
-0.5622184 -0.34986234 -0.24734119 -0.31771466 -0.41015863 -0.29975104 -0.40067375 -0.4549833
-0.37776378 -0.41056406 -0.2387034 -0.23382974 -0.41158944 -0.37588194 -0.36656195 -0.35838392
-0.32244754 -0.25768638 -0.31047902 -0.17315583 -0.3926397 -0.36821342 -0.33757952 -0.33579668
-0.4851867 -0.32776508 -0.39316347 -0.277695 -0.24633679 -0.23236467 -0.36442116 -0.4327252
00000000: 8ced 0fbf 2821 b3be 0247 7dbe 7fab a2be
00000010: 5000 d2be f878 99be 1c25 cdbe 92f3 e8be
00000020: 416a c1be 7435 d2be aa6e 74be 1071 6fbe
00000030: dabb d2be 9973 c0be 02ae bbbe 197e b7be
00000040: d817 a5be 78ef 83be 1bf7 9ebe c34f 31be
00000050: 1208 c9be 7886 bcbe 39d7 acbe 8bed abbe
00000060: 646a f8be d3d0 a7be b94c c9be 0a2e 8ebe
00000070: b63f 7cbe 01f1 6dbe 6995 babe 288e ddbe

backbone.4.bn.running_mean f4 [32]
3.4199438 1.5017962 -4.3730354 -0.7639226 1.8397839 -6.2238297 3.9668424 -9.350914
-4.067176 0.5020591 -8.861026 2.2858317 3.8359687 -8.095289 1.4098315 -0.48369765
5.3311076 3.5131094 -5.0485826 1.2058707 -5.303885 -2.57042 1.5511668 -5.962376
3.2150538 -1.0099745 1.1500213 -5.2886243 7.388213 -0.8805307 -0.016774846 -7.3955455
00000000: 5ce0 5a40 dc3a c03f e8ef 8bc0 6e90 43bf
00000010: 0a7e eb3f 9d29 c7c0 bfe0 7d40 589d 15c1
00000020: 4e26 82c0 f286 003f c3c6 0dc1 114b 1240
00000030: 8380 7540 4e86 01c1 5c75 b43f 38a7 f7be
00000040: 6f98 aa40 c9d6 6040 fd8d a1c0 f959 9a3f
00000050: 6db9 a9c0 c381 24c0 a28c c63f c9cb bec0
00000060: 71c3 4d40 d846 81bf e633 933f 693c a9c0
00000070: 3e6c ec40 766a 61bf 676b 89bc 4fa8 ecc0

backbone.4.bn.running_var f4 [32]
27.055378 31.879047 38.302025 25.024319 36.386986 44.320736 20.86839 32.61244
18.198786 17.620697 74.232506 26.329542 11.840126 26.618711 13.541591 19.451773
17.35588 26.060667 51.355602 57.417603 13.05846 20.92619 6.647573 31.602089
10.297762 28.752787 17.85978 37.83542 50.641014 27.067554 37.274086 15.861181
00000000: 6a71 d841 4a08 ff41 4635 1942 ce31 c841
00000010: 468c 1142 6f48 3142 76f2 a641 2373 0242
00000020: 1d97 9141 30f7 8c41 0b77 9442 e7a2 d241
00000030: 2871 3d41 1ff3 d441 5baa 5841 3b9d 9b41
00000040: d8d8 8a41 3f7c d041 236c 4d42 a0ab 6542
00000050: 74ef 5041 d668 a741 ebb8 d440 14d1 fc41
00000060: a2c3 2441 b505 e641 d4e0 8e41 7857 1742
00000070: 6690 4a42 5a8a d841 aa18 1542 66c7 7d41

classifier.0.weight f4 [2, 2048]
0.029426228 0.055579487 0.05933608 -0.021966496 -0.030651353 0.01354398 0.0058340086 -0.07433262
0.028277151 0.13484904 -0.0130783925 0.099734806 0.087996736 0.015883071 0.04516471 -0.002777814
-0.026842225 0.10529068 -0.040732916 -0.21106593 -0.14509328 0.04845863 0.18772382 0.0729458
0.03612129 0.17047617 0.05730895 -0.09147632 -0.09763868 0.019266134 0.106486954 0.039002534
0.0016635903 -0.13517824 -0.15238717 -0.2501594 -0.22462238 -0.02801832 -0.0629493 0.002552459
-0.014575652 0.05548302 0.026241997 -0.17048241 -0.036948983 0.09699369 0.055503055 0.05196703
0.0041869706 0.05888769 0.05087785 -0.10876384 0.0103190495 0.18474242 0.07510267 0.057710327
-0.086211026 -0.016372083 0.0006687463 0.03831339 0.01954364 -0.0036503586 0.011697714 0.03614728
0.12590407 0.040978175 0.104348645 0.026237639 0.07930665 0.18253958 0.09582291 0.0974126
-0.15926763 0.06708534 0.009854388 0.176161 -0.064055145 0.050763544 0.18712783 0.16145615
0.088982925 0.020111743 -0.12021799 -0.33465123 -0.16936636 0.18693402 0.20698906 0.2058994
-0.19112891 0.12320358 0.2087189 -0.0716591 -0.08126271 0.048464343 0.36503565 0.059853945
0.25552496 0.15323353 0.010326154 -0.0742486 -0.06123836 0.15301977 0.07766233 0.25553316
0.09636816 0.10688864 0.012297098 0.062101934 0.07999385 0.36649936 0.17754449 0.005041016
0.14679244 0.18296254 0.30883986 -0.19715591 -0.18133235 0.02489328 0.13656157 0.2739523
-0.15328766 -0.44140553 -0.08285127 -0.004858983 -0.17804588 0.2087877 -0.14640751 -0.012053886
0.0006016393 0.0333586 0.09692249 0.0055373595 0.012422774 0.071257286 -0.013403791 0.056624856
-0.037547298 0.07094736 0.10324857 0.1525766 -0.01868349 -0.04740986 -0.07453612 -0.010509743
-0.017287036 0.0023582785 0.16038306 -0.064041056 -0.22262284 -0.10349602 0.037718322 -0.03604582
0.01587537 -0.03056936 0.12360282 0.050914947 0.0362307 0.008516017 0.023453685 0.053738184
-0.0020475409 0.0051330603 -0.16428426 -0.18202694 -0.17787004 -0.23638216 -0.09972435 -0.041996546
0.037668828 0.006738927 -0.10380895 0.026996356 0.027930468 -0.085802175 -0.046858627 -0.09469685
0.011432899 0.0024173574 -0.025928626 0.044665497 -0.09491655 -0.0631009 -0.081563 -0.043438055
0.01547829 -0.05205283 -0.008737233 0.039801065 0.048840456 0.060684513 -0.09352826 -0.056336217
-0.027772974 0.04388429 0.10260859 0.14004175 0.12237795 0.15154508 0.055946216 -0.18766893
-0.021401297 0.05198466 0.025345214 -0.19968598 -0.17553176 0.20640276 0.14313807 0.08422916
-0.11930729 -0.0108875055 -0.12856558 -0.05266319 -0.101293914 0.17973477 -0.06082682 -0.05568233
-0.004781948 0.018259594 -0.08418577 -0.15285014 -0.15568365 0.028287284 0.04255137 0.04104744
0.04131568 0.000821025 0.008946791 -0.15284082 -0.11672262 -0.037729338 0.16158514 -0.0068003424
0.014823647 0.08900481 0.14990489 -0.058382344 -0.17457767 -0.082800835 -0.03530383 -0.1012126
0.006604993 0.10019735 0.20004793 0.09949484 0.18094823 0.17876028 0.099312186 -0.018793216
0.004487576 0.18969515 0.07698164 0.086196326 0.19933067 0.17724834 0.08689922 0.13698876
00000000: 460f f13c 51a7 633d 640a 733d 15f3 b3bc
00000010: 8c18 fbbc 92e7 5d3c 362b bf3b b33b 98bd
00000020: 7ca5 e73c de15 0a3e c146 56bc c341 cc3d
00000030: a237 b43d 371d 823c a2fe 383d fc0b 36bb
00000040: 3ae4 dbbc a4a2 d73d 8fd7 26bd ab21 58be
00000050: 5593 14be 8e7c 463d ac3a 403e 9c64 953d
00000060: ebf3 133d 4e91 2e3e cabc 6a3d f057 bbbd
00000070: caf6 c7bd 03d4 9d3c d515 da3d 1fc1 1f3d
00000080: d40c da3a 2a6c 0abe 620b 1cbe e514 80be
00000090: 6903 66be ad86 e5bc 90eb 80bd 2847 273b
000000a0: b7ce 6ebc 2a42 633d 75f9 d63c f192 2ebe
000000b0: d157 17bd a1a4 c63d 2c57 633d 61db 543d
000000c0: db32 893b 3834 713d 4b65 503d 93bf debd
000000d0: 3b11 293c 1e2d 3d3e 6ecf 993d aa61 6c3d
000000e0: 688f b0bd bf1e 86bc ce4e 2f3a 80ee 1c3d
000000f0: fc19 a03c db3a 6fbb c5a7 3f3c 2c0f 143d
00000100: ffec 003e bbd8 273d beb4 d53d 51f0 d63c
00000110: 866b a23d a8eb 3a3e cd3e c43d 4280 c73d
00000120: 0e17 23be 0a64 893d 4d74 213c 8d63 343e
00000130: 582f 83bd 6fed 4f3d 709e 3f3e c354 253e
00000140: ae3c b63d 62c1 a43c d934 f6bd 6857 abbe
00000150: 606e 2dbe a26b 3f3e f1f4 533e 4bd7 523e
00000160: 4cb7 43be 2952 fc3d 68ba 553e 02c2 92bd
00000170: 106d a6bd 8c82 463d f4e5 ba3e 6929 753d
00000180: 2bd4 823e 40e9 1c3e 072f 293c a60f 98bd
00000190: 13d5 7abd 37b1 1c3e 6d0d 9f3d 3ed5 823e
000001a0: ab5c c53d 6ee8 da3d c479 493c 995e 7e3d
000001b0: d1d3 a33d cea5 bb3e 39ce 353e 1b2f a53b
000001c0: c250 163e 885a 3b3e 4220 9e3e 3de3 49be
000001d0: 30af 39be feec cb3c ccd6 0b3e 7a43 8c3e
000001e0: 71f7 1cbe e8ff e1be edad a9bd 1b38 9fbb
000001f0: a951 36be 71cc 553e daeb 15be aa7d 45bc
00000200: 54b7 1d3a 07a3 083d 4c7f c63d bd72 b53b
00000210: e488 4b3c 57ef 913d 939b 5bbc 77ef 673d
00000220: 32cb 19bd d94c 913d fc73 d33d 0a3d 1c3e
00000230: 1e0e 99bc d730 42bd 65a6 98bd 0f31 2cbc
00000240: 8b9d 8dbc 598d 1a3b 753b 243e f527 83bd
00000250: 3ef7 63be b9f5 d3bd 877e 1a3d c8a4 13bd
00000260: 100d 823c 986c fabc 7a23 fd3d 318c 503d
00000270: a466 143d c486 0b3c f121 c03c 921c 5c3d
00000280: 0930 06bb 3b33 a83b 223a 28be 4565 3abe
00000290: 9023 36be 2a0e 72be 483c ccbd 9204 2cbd
000002a0: a14a 1a3d 38d2 dc3b c999 d4bd 7627 dd3c
000002b0: 70ce e43c 0db9 afbd d5ee 3fbd 6cf0 c1bd
000002c0: 0e51 3b3c 876c 1e3b 4568 d4bc 2bf3 363d
000002d0: 9c63 c2bd 0b3b 81bd 810a a7bd 1aec 31bd
000002e0: a798 7d3c 5935 55bd 9c26 0fbc 7106 233d
000002f0: ee0c 483d 5390 783d bf8b bfbd cec0 66bd
00000300: 2684 e3bc 03c0 333d 7424 d23d 1b67 0f3e
00000310: 4aa1 fa3d a22e 1b3e dc27 653d 492c 40be
00000320: c651 afbc deed 543d c4a0 cf3c 7b7a 4cbe
00000330: 99be 33be 3f5b 533e c992 123e 5680 ac3d
00000340: 6157 f4bd 8261 32bc b2a6 03be 5bb5 57bd
00000350: 2f73 cfbd 640c 383e 8b25 79bd 2813 64bd
00000360: e3b1 9cbb 2595 953c 9769 acbd bf84 1cbe
00000370: 896b 1fbe bcba e73c 584a 2e3d 5c21 283d
00000380: a13a 293d 0e3a 573a 9095 123c 4e82 1cbe
00000390: 450c efbd 148a 1abd 9376 253e 68d5 debb
000003a0: e2de 723c 2748 b63d ab80 193e 5322 6fbd
000003b0: 7dc4 32be 7c93 a9bd c09a 10bd 8d48 cfbd
000003c0: b26e d83b 4534 cd3d 5dd9 4c3e f3c3 cb3d
000003d0: 7e4a 393e ef0c 373e 3064 cb3d 3bf4 99bc
000003e0: 840c 933b 723f 423e 8da8 9d3d b387 b03d
000003f0: 571d 4c3e 9780 353e 38f8 b13d c846 0c3e

classifier.0.bias f4 [2]
-0.0040076836 0.00010113005
00000000: e352 83bb c815 d438
